…
d(layers.AveragePooling2D())\nmodel.add(layers.Flatten())\nmodel.add(layers.Dense(units=120, activation='relu'))\nmodel.add(layers.Dense(units=84, activation='relu'))\nmodel.add(layers.Dense(units=10, activation = 'softmax'))\n\n\nmodel\n\n&lt;tensorflow.python.keras.engine.sequential.Sequential at 0x7f96fa3cd4e0&gt;\n\n\n\nmodel.summary()\n\nModel: \"sequential_3\"\n_________________________________________________________________\nLayer (type)                 Output Shape              Param #   \n=================================================================\nconv2d_3 (Conv2D)            (None, 26, 26, 6)         60        \n_________________________________________________________________\naverage_pooling2d_2 (Average (None, 13, 13, 6)         0         \n_________________________________________________________________\nconv2d_4 (Conv2D)            (None, 11, 11, 16)        880       \n_________________________________________________________________\naverage_pooling2d_3 (Average (None, 5, 5, 16)          0         \n_________________________________________________________________\nflatten_1 (Flatten)          (None, 400)               0         \n_________________________________________________________________\ndense_3 (Dense)              (None, 120)               48120     \n_________________________________________________________________\ndense_4 (Dense)              (None, 84)                10164     \n_________________________________________________________________\ndense_5 (Dense)              (None, 10)                850       \n=================================================================\nTotal params: 60,074\nTrainable params: 60,074\nNon-trainable params: 0\n_________________________________________________________________\n\n\n\nfrom keras.datasets import mnist\nfrom keras import backend as K\n\n\nbatch_size = 128\nnum_classes = 10\nepochs = 12\n\n# input image dimensions\nimg_rows, img_cols = 28, 28\n\n
…
1])[0])\n    plt.title(\"Predicted = {}, GT = {}\".format(pred, np.argmax(y_test[test_sample])))\n\n\nplot_prediction(359)\n\n\n\n\n\n\n\n\n\nplot_prediction(9729)\n\n\n\n\n\n\n\n\n\nplot_prediction(9634)\n\n\n\n\n\n\n\n\n\n### Feature map\n\n\nfm_model = keras.Model(inputs=model.inputs, outputs=model.layers[2].output)\n\n\nmodel.summary()\n\nModel: \"sequential_3\"\n_________________________________________________________________\nLayer (type)                 Output Shape              Param #   \n=================================================================\nconv2d_3 (Conv2D)            (None, 26, 26, 6)         60        \n_________________________________________________________________\naverage_pooling2d_2 (Average (None, 13, 13, 6)         0         \n_________________________________________________________________\nconv2d_4 (Conv2D)            (None, 11, 11, 16)        880       \n_________________________________________________________________\naverage_pooling2d_3 (Average (None, 5, 5, 16)          0         \n_________________________________________________________________\nflatten_1 (Flatten)          (None, 400)               0         \n_________________________________________________________________\ndense_3 (Dense)              (None, 120)               48120     \n_________________________________________________________________\ndense_4 (Dense)              (None, 84)                10164     \n_________________________________________________________________\ndense_5 (Dense)              (None, 10)                850       \n=================================================================\nTotal params: 60,074\nTrainable params: 60,074\nNon-trainable params: 0\n_________________________________________________________________\n\n\n\nfm_model.summary()\n\nModel: \"model_3\"\n_________________________________________________________________\nLayer (type)                 Output Shape              Param #   \n=================================================================\nconv2d_3_input (InputLayer)  [(None, 28, 28, 1)]       0         \n_________________________________________________________________\nconv2d_3 (Conv2D)            (None, 26, 26, 6)         60        \n_________________________________________________________________\naverage_pooling2d_2 (Average (None, 13, 13, 6)         0         \n_________________________________________________________________\nconv2d_4 (Conv2D)            (None, 11, 11, 16)        880       \n=================================================================\nTotal params: 940\nTrainable params: 940\nNon-trainable params: 0\n_________________________________________________________________\n\n\n\nfm_model.predict(x_test[test_sample:test_sample+1]).shape\n\n(1, 11, 11, 16)\n\n\n\ntest_sample = 88\nfm_1 = fm_model.predict(x_test[test_sample:test_sample+1])[0, :, :, :]\n\n\nfig, ax = plt.subplots(ncols=16, figsize=(20, 4))\nfor i in range(16):\n    ax[i].imshow(fm_1[:, :, i], cmap=\"Greys\")"
…
    "text": "import tensorflow.keras as keras\nimport tensorflow.keras.layers as layers\n\n\nfrom tensorflow.keras.applications.vgg16 import VGG16\nmodel = VGG16()\n\nDownloading data from https://github.com/fchollet/deep-learning-models/releases/download/v0.1/vgg16_weights_tf_dim_ordering_tf_kernels.h5\n553467904/553467096 [==============================] - 362s 1us/step\n\n\n\nmodel.summary()\n\nModel: \"vgg16\"\n_________________________________________________________________\nLayer (type)                 Output Shape              Param #   \n=================================================================\ninput_1 (InputLayer)         [(None, 224, 224, 3)]     0         \n_________________________________________________________________\nblock1_conv1 (Conv2D)        (None, 224, 224, 64)      1792      \n_________________________________________________________________\nblock1_conv2 (Conv2D)        (None, 224, 224, 64)      36928     \n_________________________________________________________________\nblock1_pool (MaxPooling2D)   (None, 112, 112, 64)      0         \n_________________________________________________________________\nblock2_conv1 (Conv2D)        (None, 112, 112, 128)     73856     \n_________________________________________________________________\nblock2_conv2 (Conv2D)        (None, 112, 112, 128)     147584    \n_________________________________________________________________\nblock2_pool (MaxPooling2D)   (None, 56, 56, 128)       0         \n_________________________________________________________________\nblock3_conv1 (Conv2D)        (None, 56, 56, 256)       295168    \n_________________________________________________________________\nblock3_conv2 (Conv2D)        (None, 56, 56, 256)       590080    \n_________________________________________________________________\nblock3_conv3 (Conv2D)        (None, 56, 56, 256)       590080    \n_________________________________________________________________\nblock3_pool (MaxPooling2D)   (None, 28, 28, 256)       0         \n_________________________________________________________________\nblock4_conv1 (Conv2D)        (None, 28, 28, 512)       1180160   \n_________________________________________________________________\nblock4_conv2 (Conv2D)        (None, 28, 28, 512)       2359808   \n_________________________________________________________________\nblock4_conv3 (Conv2D)        (None, 28, 28, 512)       2359808   \n_________________________________________________________________\nblock4_pool (MaxPooling2D)   (None, 14, 14, 512)       0         \n_________________________________________________________________\nblock5_conv1 (Conv2D)        (None, 14, 14, 512)       2359808   \n_________________________________________________________________\nblock5_conv2 (Conv2D)        (None, 14, 14, 512)       2359808   \n_________________________________________________________________\nblock5_conv3 (Conv2D)        (None, 14, 14, 512)       2359808   \n_________________________________________________________________\nblock5_pool (MaxPooling2D)   (None, 7, 7, 512)         0         \n_________________________________________________________________\nflatten (Flatten)            (None, 25088)             0         \n_________________________________________________________________\nfc1 (Dense)                  (None, 4096)              102764544 \n_________________________________________________________________\nfc2 (Dense)                  (None, 4096)              16781312  \n_________________________________________________________________\npredictions (Dense)          (None, 1000)              4097000   \n=================================================================\nTotal params: 138,357,544\nTrainable params: 138,357,544\nNon-trainable params: 0\n_________________________________________________________________\n\n\n\n\n\nModel: \"sequential_3\"\n_________________________________________________________________\nLayer (type)                 Output Shape              Param #   \n=================================================================\nconv2d_3 (Conv2D)            (None, 26, 26, 6)         60        \n_________________________________________________________________\naverage_pooling2d_2 (Average (None, 13, 13, 6)         0         \n_________________________________________________________________\nconv2d_4 (Conv2D)            (None, 11, 11, 16)        880       \n_________________________________________________________________\naverage_pooling2d_3 (Average (None, 5, 5, 16)          0         \n_________________________________________________________________\nflatten_1 (Flatten)          (None, 400)               0         \n_________________________________________________________________\ndense_3 (Dense)              (None, 120)               48120     \n_________________________________________________________________\ndense_4 (Dense)              (None, 84)                10164     \n_________________________________________________________________\ndense_5 (Dense)              (None, 10)                850       \n=================================================================\nTotal params: 60,074\nTrainable params: 60,074\nNon-trainable params: 0\n_________________________________________________________________\n\n\n\nfrom keras.datasets import mnist\nfrom keras import backend as K\n\n\nbatch_size = 128\nnum_classes = 10\nepochs = 12\n\n# input image dimensions\nimg_rows, img_cols = 28, 28\n\n
…
